…
  attn_output = scaled_dot_product_attention(q, k, v, attn_mask, dropout_p, is_causal)
2025-08-08 12:28:18,681 - src.models.bart_decoder - ERROR - Enhanced BARTDecoder forward pass failed: BartForConditionalGeneration(
  (model): BartModel(
    (shared): BartScaledWordEmbedding(51271, 768, padding_idx=0)
    (encoder): BartEncoder(
      (embed_tokens): BartScaledWordEmbedding(51271, 768, padding_idx=0)
      (embed_positions): BartLearnedPositionalEmbedding(1026, 768)
      (layers): ModuleList(
        (0-5): 6 x BartEncoderLayer(
          (self_attn): BartSdpaAttention(
            (k_proj): Linear(in_features=768, out_features=768, bias=True)
            (v_proj): Linear(in_features=768, out_features=768, bias=True)
            (q_proj): Linear(in_features=768, out_features=768, bias=True)
            (out_proj): Linear(in_features=768, out_features=768, bias=True)
          )
          (self_attn_layer_norm): LayerNorm((768,), eps=1e-05, elementwise_affine=True)
          (activation_fn): GELUActivation()
          (fc1): Linear(in_features=768, out_features=3072, bias=True)
          (fc2): Linear(in_features=3072, out_features=768, bias=True)
          (final_layer_norm): LayerNorm((768,), eps=1e-05, elementwise_affine=True)
        )
      )
      (layernorm_embedding): LayerNorm((768,), eps=1e-05, elementwise_affine=True)
    )
    (decoder): BartDecoder(
      (embed_tokens): BartScaledWordEmbedding(51271, 768, padding_idx=0)
      (embed_positions): BartLearnedPositionalEmbedding(1026, 768)
      (layers): ModuleList(
        (0-5): 6 x BartDecoderLayer(
          (self_attn): BartSdpaAttention(
            (k_proj): Linear(in_features=768, out_features=768, bias=True)
            (v_proj): Linear(in_features=768, out_features=768, bias=True)
            (q_proj): Linear(in_features=768, out_features=768, bias=True)
            (out_proj): Linear(in_features=768, out_features=768, bias=True)
          )
          (activation_fn): GELUActivation()
          (self_attn_layer_norm): LayerNorm((768,), eps=1e-05, elementwise_affine=True)
          (encoder_attn): BartSdpaAttention(
            (k_proj): Linear(in_features=768, out_features=768, bias=True)
            (v_proj): Linear(in_features=768, out_features=768, bias=True)
            (q_proj): Linear(in_features=768, out_features=768, bias=True)
            (out_proj): Linear(in_features=768, out_features=768, bias=True)
          )
          (encoder_attn_layer_norm): LayerNorm((768,), eps=1e-05, elementwise_affine=True)
          (fc1): Linear(in_features=768, out_features=3072, bias=True)
          (fc2): Linear(in_features=3072, out_features=768, bias=True)
          (final_layer_norm): LayerNorm((768,), eps=1e-05, elementwise_affine=True)
        )
      )
      (layernorm_embedding): LayerNorm((768,), eps=1e-05, elementwise_affine=True)
    )
  )
  (lm_head): Linear(in_features=768, out_features=51271, bias=False)
) got multiple values for keyword argument 'return_dict'
2025-08-08 12:28:18,682 - src.training.trainer - ERROR - Error in training step 0: Seq2SeqLMOutput.__init__() got an unexpected keyword argument 'decoder_hidden'
Training Epoch 1:   0%|                                                                                                                                                      | 1/5893 [00:01<2:28:37,  1.51s/it]2025-08-08 12:28:19,177 - src.models.bart_decoder - ERROR - Enhanced BARTDecoder forward pass failed: BartForConditionalGeneration(
…
