…
mers\cuda\sdp_utils.cpp:555.)
  attn_output = scaled_dot_product_attention(q, k, v, attn_mask, dropout_p, is_causal)
ERROR:src.models.bart_decoder:Enhanced BARTDecoder forward pass failed: BartForConditionalGeneration(
  (model): BartModel(
    (shared): BartScaledWordEmbedding(51271, 768, padding_idx=0)
    (encoder): BartEncoder(
      (embed_tokens): BartScaledWordEmbedding(51271, 768, padding_idx=0)
      (embed_positions): BartLearnedPositionalEmbedding(1026, 768)
      (layers): ModuleList(
        (0-5): 6 x BartEncoderLayer(
          (self_attn): BartSdpaAttention(
            (k_proj): Linear(in_features=768, out_features=768, bias=True)
            (v_proj): Linear(in_features=768, out_features=768, bias=True)
            (q_proj): Linear(in_features=768, out_features=768, bias=True)
            (out_proj): Linear(in_features=768, out_features=768, bias=True)
          )
          (self_attn_layer_norm): LayerNorm((768,), eps=1e-05, elementwise_affine=True)
          (activation_fn): GELUActivation()
          (fc1): Linear(in_features=768, out_features=3072, bias=True)
          (fc2): Linear(in_features=3072, out_features=768, bias=True)
          (final_layer_norm): LayerNorm((768,), eps=1e-05, elementwise_affine=True)
        )
      )
      (layernorm_embedding): LayerNorm((768,), eps=1e-05, elementwise_affine=True)
    )
    (decoder): BartDecoder(
      (embed_tokens): BartScaledWordEmbedding(51271, 768, padding_idx=0)
      (embed_positions): BartLearnedPositionalEmbedding(1026, 768)
      (layers): ModuleList(
        (0-5): 6 x BartDecoderLayer(
          (self_attn): BartSdpaAttention(
            (k_proj): Linear(in_features=768, out_features=768, bias=True)
            (v_proj): Linear(in_features=768, out_features=768, bias=True)
            (q_proj): Linear(in_features=768, out_features=768, bias=True)
            (out_proj): Linear(in_features=768, out_features=768, bias=True)
          )
          (activation_fn): GELUActivation()
          (self_attn_layer_norm): LayerNorm((768,), eps=1e-05, elementwise_affine=True)
          (encoder_attn): BartSdpaAttention(
            (k_proj): Linear(in_features=768, out_features=768, bias=True)
            (v_proj): Linear(in_features=768, out_features=768, bias=True)
            (q_proj): Linear(in_features=768, out_features=768, bias=True)
            (out_proj): Linear(in_features=768, out_features=768, bias=True)
          )
          (encoder_attn_layer_norm): LayerNorm((768,), eps=1e-05, elementwise_affine=True)
          (fc1): Linear(in_features=768, out_features=3072, bias=True)
          (fc2): Linear(in_features=3072, out_features=768, bias=True)
          (final_layer_norm): LayerNorm((768,), eps=1e-05, elementwise_affine=True)
        )
      )
      (layernorm_embedding): LayerNorm((768,), eps=1e-05, elementwise_affine=True)
    )
  )
  (lm_head): Linear(in_features=768, out_features=51271, bias=False)
) got multiple values for keyword argument 'return_dict'
Training Epoch 1:   0%|                                                                                                       | 1/5893 [00:02<3:34:11,  2.18s/it, loss=5.1035, lr=0.0e+00, div=0.842, var=0.968]ERROR:src.models.bart_decoder:Enhanced BARTDecoder forward pass failed: BartForConditionalGeneration(
  (model): BartModel(
    (shared): BartScaledWordEmbedding(51271, 768, padding_idx=0)
    (encoder): BartEncoder(
      (embed_tokens): BartScaledWordEmbedding(51271, 768, padding_idx=0)
      (embed_positions): BartLearnedPositionalEmbedding(1026, 768)
      (layers): ModuleList(
        (0-5): 6 x BartEncoderLayer(
          (self_attn): BartSdpaAttention(
            (k_proj): Linear(in_features=768, out_features=768, bias=True)
            (v_proj): Linear(in_features=768, out_features=768, bias=True)
            (q_proj): Linear(in_features=768, out_features=768, bias=True)
            (out_proj): Linear(in_features=768, out_features=768, bias=True)
          )
          (self_attn_layer_norm): LayerNorm((768,), eps=1e-05, elementwise_affine=True)
          (activation_fn): GELUActivation()
          (fc1): Linear(in_features=768, out_features=3072, bias=True)
          (fc2): Linear(in_features=3072, out_features=768, bias=True)
          (final_layer_norm): LayerNorm((768,), eps=1e-05, elementwise_affine=True)
        )
      )
      (layernorm_embedding): LayerNorm((768,), eps=1e-05, elementwise_affine=True)
    )
    (decoder): BartDecoder(
      (embed_tokens): BartScaledWordEmbedding(51271, 768, padding_idx=0)
      (embed_positions): BartLearnedPositionalEmbedding(1026, 768)
      (layers): ModuleList(
        (0-5): 6 x BartDecoderLayer(
          (self_attn): BartSdpaAttention(
            (k_proj): Linear(in_features=768, out_features=768, bias=True)
            (v_proj): Linear(in_features=768, out_features=768, bias=True)
            (q_proj): Linear(in_features=768, out_features=768, bias=True)
            (out_proj): Linear(in_features=768, out_features=768, bias=True)
          )
          (activation_fn): GELUActivation()
          (self_attn_layer_norm): LayerNorm((768,), eps=1e-05, elementwise_affine=True)
          (encoder_attn): BartSdpaAttention(
            (k_proj): Linear(in_features=768, out_features=768, bias=True)
            (v_proj): Linear(in_features=768, out_features=768, bias=True)
            (q_proj): Linear(in_features=768, out_features=768, bias=True)
            (out_proj): Linear(in_features=768, out_features=768, bias=True)
          )
          (encoder_attn_layer_norm): LayerNorm((768,), eps=1e-05, elementwise_affine=True)
          (fc1): Linear(in_features=768, out_features=3072, bias=True)
          (fc2): Linear(in_features=3072, out_features=768, bias=True)
          (final_layer_norm): LayerNorm((768,), eps=1e-05, elementwise_affine=True)
        )
      )
      (layernorm_embedding): LayerNorm((768,), eps=1e-05, elementwise_affine=True)
    )
  )
  (lm_head): Linear(in_features=768, out_features=51271, bias=False)
) got multiple values for keyword argument 'return_dict'
Training Epoch 1:   0%|                                                                                                       | 2/5893 [00:03<2:25:08,  1.48s/it, loss=5.1035, lr=0.0e+00, div=0.842, var=0.968]ERROR:src.models.bart_decoder:Enhanced BARTDecoder forward pass failed: BartForConditionalGeneration(
  (model): BartModel(
    (shared): BartScaledWordEmbedding(51271, 768, padding_idx=0)
    (encoder): BartEncoder(
      (embed_tokens): BartScaledWordEmbedding(51271, 768, padding_idx=0)
      (embed_positions): BartLearnedPositionalEmbedding(1026, 768)
      (layers): ModuleList(
        (0-5): 6 x BartEncoderLayer(
          (self_attn): BartSdpaAttention(
            (k_proj): Linear(in_features=768, out_features=768, bias=True)
            (v_proj): Linear(in_features=768, out_features=768, bias=True)
            (q_proj): Linear(in_features=768, out_features=768, bias=True)
            (out_proj): Linear(in_features=768, out_features=768, bias=True)
          )
          (self_attn_layer_norm): LayerNorm((768,), eps=1e-05, elementwise_affine=True)
          (activation_fn): GELUActivation()
          (fc1): Linear(in_features=768, out_features=3072, bias=True)
          (fc2): Linear(in_features=3072, out_features=768, bias=True)
          (final_layer_norm): LayerNorm((768,), eps=1e-05, elementwise_affine=True)
        )
      )
      (layernorm_embedding): LayerNorm((768,), eps=1e-05, elementwise_affine=True)
    )
    (decoder): BartDecoder(
      (embed_tokens): BartScaledWordEmbedding(51271, 768, padding_idx=0)
      (embed_positions): BartLearnedPositionalEmbedding(1026, 768)
      (layers): ModuleList(
        (0-5): 6 x BartDecoderLayer(
          (self_attn): BartSdpaAttention(
            (k_proj): Linear(in_features=768, out_features=768, bias=True)
            (v_proj): Linear(in_features=768, out_features=768, bias=True)
            (q_proj): Linear(in_features=768, out_features=768, bias=True)
            (out_proj): Linear(in_features=768, out_features=768, bias=True)
          )
          (activation_fn): GELUActivation()
          (self_attn_layer_norm): LayerNorm((768,), eps=1e-05, elementwise_affine=True)
          (encoder_attn): BartSdpaAttention(
            (k_proj): Linear(in_features=768, out_features=768, bias=True)
            (v_proj): Linear(in_features=768, out_features=768, bias=True)
            (q_proj): Linear(in_features=768, out_features=768, bias=True)
            (out_proj): Linear(in_features=768, out_features=768, bias=True)
          )
          (encoder_attn_layer_norm): LayerNorm((768,), eps=1e-05, elementwise_affine=True)
          (fc1): Linear(in_features=768, out_features=3072, bias=True)
          (fc2): Linear(in_features=3072, out_features=768, bias=True)
          (final_layer_norm): LayerNorm((768,), eps=1e-05, elementwise_affine=True)
        )
      )
      (layernorm_embedding): LayerNorm((768,), eps=1e-05, elementwise_affine=True)
    )
  )
  (lm_head): Linear(in_features=768, out_features=51271, bias=False)
) got multiple values for keyword argument 'return_dict'
Training Epoch 1:   0%|                                                                                                       | 3/5893 [00:04<2:01:21,  1.24s/it, loss=5.1035, lr=0.0e+00, div=0.842, var=0.968]ERROR:src.models.bart_decoder:Enhanced BARTDecoder forward pass failed: BartForConditionalGeneration(
  (model): BartModel(
    (shared): BartScaledWordEmbedding(51271, 768, padding_idx=0)
    (encoder): BartEncoder(
      (embed_tokens): BartScaledWordEmbedding(51271, 768, padding_idx=0)
      (embed_positions): BartLearnedPositionalEmbedding(1026, 768)
      (layers): ModuleList(
        (0-5): 6 x BartEncoderLayer(
          (self_attn): BartSdpaAttention(
            (k_proj): Linear(in_features=768, out_features=768, bias=True)
            (v_proj): Linear(in_features=768, out_features=768, bias=True)
            (q_proj): Linear(in_features=768, out_features=768, bias=True)
            (out_proj): Linear(in_features=768, out_features=768, bias=True)
          )
          (self_attn_layer_norm): LayerNorm((768,), eps=1e-05, elementwise_affine=True)
          (activation_fn): GELUActivation()
          (fc1): Linear(in_features=768, out_features=3072, bias=True)
          (fc2): Linear(in_features=3072, out_features=768, bias=True)
          (final_layer_norm): LayerNorm((768,), eps=1e-05, elementwise_affine=True)
        )
      )
      (layernorm_embedding): LayerNorm((768,), eps=1e-05, elementwise_affine=True)
    )
    (decoder): BartDecoder(
      (embed_tokens): BartScaledWordEmbedding(51271, 768, padding_idx=0)
      (embed_positions): BartLearnedPositionalEmbedding(1026, 768)
      (layers): ModuleList(
        (0-5): 6 x BartDecoderLayer(
          (self_attn): BartSdpaAttention(
            (k_proj): Linear(in_features=768, out_features=768, bias=True)
            (v_proj): Linear(in_features=768, out_features=768, bias=True)
            (q_proj): Linear(in_features=768, out_features=768, bias=True)
            (out_proj): Linear(in_features=768, out_features=768, bias=True)
          )
          (activation_fn): GELUActivation()
          (self_attn_layer_norm): LayerNorm((768,), eps=1e-05, elementwise_affine=True)
          (encoder_attn): BartSdpaAttention(
            (k_proj): Linear(in_features=768, out_features=768, bias=True)
            (v_proj): Linear(in_features=768, out_features=768, bias=True)
            (q_proj): Linear(in_features=768, out_features=768, bias=True)
            (out_proj): Linear(in_features=768, out_features=768, bias=True)
          )
          (encoder_attn_layer_norm): LayerNorm((768,), eps=1e-05, elementwise_affine=True)
          (fc1): Linear(in_features=768, out_features=3072, bias=True)
          (fc2): Linear(in_features=3072, out_features=768, bias=True)
          (final_layer_norm): LayerNorm((768,), eps=1e-05, elementwise_affine=True)
        )
      )
      (layernorm_embedding): LayerNorm((768,), eps=1e-05, elementwise_affine=True)
    )
  )
  (lm_head): Linear(in_features=768, out_features=51271, bias=False)
) got multiple values for keyword argument 'return_dict'
Training Epoch 1:   0%|                                                                                                       | 4/5893 [00:05<1:53:34,  1.16s/it, loss=5.1035, lr=0.0e+00, div=0.842, var=0.968]ERROR:src.models.bart_decoder:Enhanced BARTDecoder forward pass failed: BartForConditionalGeneration(
  (model): BartModel(
    (shared): BartScaledWordEmbedding(51271, 768, padding_idx=0)
    (encoder): BartEncoder(
      (embed_tokens): BartScaledWordEmbedding(51271, 768, padding_idx=0)
      (embed_positions): BartLearnedPositionalEmbedding(1026, 768)
      (layers): ModuleList(
        (0-5): 6 x BartEncoderLayer(
          (self_attn): BartSdpaAttention(
            (k_proj): Linear(in_features=768, out_features=768, bias=True)
            (v_proj): Linear(in_features=768, out_features=768, bias=True)
            (q_proj): Linear(in_features=768, out_features=768, bias=True)
            (out_proj): Linear(in_features=768, out_features=768, bias=True)
          )
          (self_attn_layer_norm): LayerNorm((768,), eps=1e-05, elementwise_affine=True)
          (activation_fn): GELUActivation()
          (fc1): Linear(in_features=768, out_features=3072, bias=True)
          (fc2): Linear(in_features=3072, out_features=768, bias=True)
          (final_layer_norm): LayerNorm((768,), eps=1e-05, elementwise_affine=True)
        )
      )
      (layernorm_embedding): LayerNorm((768,), eps=1e-05, elementwise_affine=True)
    )
    (decoder): BartDecoder(
      (embed_tokens): BartScaledWordEmbedding(51271, 768, padding_idx=0)
      (embed_positions): BartLearnedPositionalEmbedding(1026, 768)
      (layers): ModuleList(
        (0-5): 6 x BartDecoderLayer(
          (self_attn): BartSdpaAttention(
            (k_proj): Linear(in_features=768, out_features=768, bias=True)
            (v_proj): Linear(in_features=768, out_features=768, bias=True)
            (q_proj): Linear(in_features=768, out_features=768, bias=True)
            (out_proj): Linear(in_features=768, out_features=768, bias=True)
          )
          (activation_fn): GELUActivation()
          (self_attn_layer_norm): LayerNorm((768,), eps=1e-05, elementwise_affine=True)
          (encoder_attn): BartSdpaAttention(
            (k_proj): Linear(in_features=768, out_features=768, bias=True)
            (v_proj): Linear(in_features=768, out_features=768, bias=True)
            (q_proj): Linear(in_features=768, out_features=768, bias=True)
            (out_proj): Linear(in_features=768, out_features=768, bias=True)
          )
          (encoder_attn_layer_norm): LayerNorm((768,), eps=1e-05, elementwise_affine=True)
          (fc1): Linear(in_features=768, out_features=3072, bias=True)
          (fc2): Linear(in_features=3072, out_features=768, bias=True)
          (final_layer_norm): LayerNorm((768,), eps=1e-05, elementwise_affine=True)
        )
      )
      (layernorm_embedding): LayerNorm((768,), eps=1e-05, elementwise_affine=True)
    )
  )
  (lm_head): Linear(in_features=768, out_features=51271, bias=False)
) got multiple values for keyword argument 'return_dict'
